{
  "parameter_count": 19890602,
  "model_architecture": "Network(\n  (model): Sequential(\n    (0): Linear(in_features=2268, out_features=2176, bias=True)\n    (1): GELU(approximate='none')\n    (2): Dropout(p=0.1, inplace=False)\n    (3): Linear(in_features=2176, out_features=2176, bias=True)\n    (4): BatchNorm1d(2176, eps=1e-05, momentum=0.1, affine=True, track_running_stats=True)\n    (5): GELU(approximate='none')\n    (6): Dropout(p=0.1, inplace=False)\n    (7): Linear(in_features=2176, out_features=2176, bias=True)\n    (8): BatchNorm1d(2176, eps=1e-05, momentum=0.1, affine=True, track_running_stats=True)\n    (9): GELU(approximate='none')\n    (10): Dropout(p=0.1, inplace=False)\n    (11): Linear(in_features=2176, out_features=1536, bias=True)\n    (12): BatchNorm1d(1536, eps=1e-05, momentum=0.1, affine=True, track_running_stats=True)\n    (13): GELU(approximate='none')\n    (14): Dropout(p=0.1, inplace=False)\n    (15): Linear(in_features=1536, out_features=1024, bias=True)\n    (16): BatchNorm1d(1024, eps=1e-05, momentum=0.1, affine=True, track_running_stats=True)\n    (17): GELU(approximate='none')\n    (18): Dropout(p=0.1, inplace=False)\n    (19): Linear(in_features=1024, out_features=512, bias=True)\n    (20): BatchNorm1d(512, eps=1e-05, momentum=0.1, affine=True, track_running_stats=True)\n    (21): GELU(approximate='none')\n    (22): Dropout(p=0.1, inplace=False)\n    (23): Linear(in_features=512, out_features=42, bias=True)\n  )\n)"
}